app/src/main/assets/model_11.tflite (tflite, 682816 bytes, 68 tensors)

model/conv1d_15/conv1d i1 [72, 1, 9, 72]
0	0x03	3
1	0xf4	-12
2	0xea	-22
3	0x30	48
4	0xe6	-26
5	0xb5	-75
6	0x21	33
7	0xe7	-25
8	0xe5	-27
9	0x1b	27
10	0x27	39
11	0xc3	-61
12	0xf0	-16
13	0x03	3
14	0xe1	-31
15	0xf7	-9
16	0xc9	-55
17	0xd6	-42
18	0xb4	-76
19	0x81	-127
20	0xeb	-21
21	0x15	21
22	0xcd	-51
23	0xa4	-92
24	0x1e	30
25	0xb4	-76
26	0x3c	60
27	0x37	55
28	0xef	-17
29	0xdb	-37
30	0xb6	-74
31	0x25	37
32	0xa5	-91
33	0x35	53
34	0xe2	-30
35	0x0c	12
36	0x05	5
37	0xb8	-72
38	0xd8	-40
39	0x9f	-97
40	0xf9	-7
41	0xe7	-25
42	0x13	19
43	0xb0	-80
44	0xe7	-25
45	0xdf	-33
46	0x0f	15
47	0x38	56
48	0xed	-19
49	0xfa	-6
50	0x95	-107
51	0xde	-34
52	0x1d	29
53	0x23	35
54	0xcb	-53
55	0x0a	10
56	0x09	9
57	0xd4	-44
58	0xc5	-59
59	0xb8	-72
60	0x90	-112
61	0xe9	-23
62	0xa8	-88
63	0x11	17
64	0xd1	-47
65	0xd2	-46
66	0xd8	-40
67	0xa4	-92
68	0xc0	-64
69	0xf1	-15
70	0x03	3
71	0xf9	-7
72	0xf5	-11
73	0xf0	-16
74	0x11	17
75	0xd7	-41
76	0x26	38
77	0xf4	-12
78	0x4d	77
79	0xdb	-37
80	0xed	-19
81	0x0a	10
82	0xa7	-89
83	0x1c	28
84	0x08	8
85	0x4e	78
86	0xec	-20
87	0x09	9
88	0xd8	-40
89	0xbd	-67
90	0xfd	-3
91	0xb2	-78
92	0x0d	13
93	0x1e	30
94	0xa9	-87
95	0xb9	-71
96	0x09	9
97	0xb0	-80
98	0x34	52
99	0x10	16
100	0x13	19
101	0xbb	-69
102	0xcf	-49
103	0xaa	-86
104	0xd2	-46
105	0x15	21
106	0x1c	28
107	0xde	-34
108	0xeb	-21
109	0xd8	-40
110	0xbf	-65
111	0xf0	-16
112	0x64	100
113	0xa3	-93
114	0x27	39
115	0xd3	-45
116	0xdc	-36
117	0xab	-85
118	0x21	33
119	0xfc	-4
120	0xbd	-67
121	0xf3	-13
122	0xe9	-23
123	0x42	66
124	0x53	83
125	0x18	24
126	0xde	-34
127	0x1e	30
128	0xe8	-24
129	0x43	67
130	0x07	7
131	0xf6	-10
132	0xfc	-4
133	0xc2	-62
134	0xa5	-91
135	0xec	-20
136	0xdf	-33
137	0xf4	-12
138	0xef	-17
139	0xf8	-8
140	0xde	-34
141	0x9a	-102
142	0xee	-18
143	0x20	32
144	0xcd	-51
145	0xba	-70
146	0xce	-50
147	0xc1	-63
148	0xff	-1
149	0xa9	-87
150	0xf7	-9
151	0xb2	-78
152	0xaf	-81
153	0xf3	-13
154	0x81	-127
155	0xc9	-55
156	0xb2	-78
157	0x28	40
158	0x10	16
159	0xc2	-62
160	0xda	-38
161	0xe5	-27
162	0xf7	-9
163	0xa5	-91
164	0x1d	29
165	0x2f	47
166	0xa7	-89
167	0xd8	-40
168	0x30	48
169	0xa9	-87
170	0x44	68
171	0x14	20
172	0x04	4
173	0xbb	-69
174	0xe8	-24
175	0xfc	-4
176	0xde	-34
177	0xe9	-23
178	0x1b	27
179	0xbd	-67
180	0xe5	-27
181	0xd7	-41
182	0xe9	-23
183	0xa7	-89
184	0x02	2
185	0xdc	-36
186	0x58	88
187	0xc0	-64
188	0xe3	-29
189	0xbd	-67
190	0x39	57
191	0x13	19
192	0xae	-82
193	0xfd	-3
194	0xb2	-78
195	0x2f	47
196	0x24	36
197	0x25	37
198	0x8e	-114
199	0xe9	-23
200	0xe3	-29
201	0xf3	-13
202	0x47	71
203	0xa5	-91
204	0x17	23
205	0xc8	-56
206	0xda	-38
207	0xf4	-12
208	0xd6	-42
209	0xe7	-25
210	0xb8	-72
211	0xf5	-11
212	0xcd	-51
213	0xb8	-72
214	0x05	5
215	0xb3	-77
216	0xd4	-44
217	0xcf	-49
218	0xf4	-12
219	0x04	4
220	0xdd	-35
221	0xe8	-24
222	0xff	-1
223	0xae	-82
224	0xb3	-77
225	0xf7	-9
226	0xc2	-62
227	0xbd	-67
228	0xe1	-31
229	0x41	65
230	0xc9	-55
231	0x01	1
232	0xab	-85
233	0x00	0
234	0xf6	-10
235	0xa3	-93
236	0x16	22
237	0x4e	78
238	0xe1	-31
239	0xce	-50
240	0xe1	-31
241	0xa0	-96
242	0x0a	10
243	0x1c	28
244	0x0b	11
245	0xb3	-77
246	0x8d	-115
247	0xc0	-64
248	0xe3	-29
249	0x18	24
250	0x40	64
251	0xac	-84
252	0xe7	-25
253	0xc9	-55
254	0xdb	-37
255	0xd2	-46

model/conv1d_14/conv1d i1 [72, 1, 9, 72]
0	0x0c	12
1	0xdf	-33
2	0x27	39
3	0xff	-1
4	0x31	49
5	0x2d	45
6	0x1f	31
7	0xef	-17
8	0x0c	12
9	0xa6	-90
10	0xef	-17
11	0x1f	31
12	0x29	41
13	0x32	50
14	0xf2	-14
15	0x11	17
16	0xe2	-30
17	0x0c	12
18	0x28	40
19	0xe7	-25
20	0xf4	-12
21	0xba	-70
22	0x3c	60
23	0x0d	13
24	0xb7	-73
25	0x18	24
26	0x30	48
27	0x19	25
28	0x17	23
29	0xeb	-21
30	0xc3	-61
31	0x7f	127
32	0x31	49
33	0xdc	-36
34	0x12	18
35	0x2f	47
36	0xe3	-29
37	0x21	33
38	0x1e	30
39	0xe0	-32
40	0x47	71
41	0x2d	45
42	0x2e	46
43	0x46	70
44	0x5c	92
45	0xd7	-41
46	0x33	51
47	0xe0	-32
48	0x06	6
49	0x35	53
50	0x10	16
51	0x2c	44
52	0x00	0
53	0x44	68
54	0xf6	-10
55	0x0f	15
56	0x25	37
57	0xe0	-32
58	0x02	2
59	0xb2	-78
60	0x51	81
61	0x14	20
62	0x06	6
63	0x0d	13
64	0xc6	-58
65	0xd9	-39
66	0x18	24
67	0x41	65
68	0x38	56
69	0x11	17
70	0xf1	-15
71	0x31	49
72	0x1b	27
73	0x14	20
74	0x24	36
75	0xdc	-36
76	0x40	64
77	0x5d	93
78	0xef	-17
79	0xa5	-91
80	0x06	6
81	0xe2	-30
82	0xe6	-26
83	0x5b	91
84	0x34	52
85	0x28	40
86	0xf2	-14
87	0xe0	-32
88	0x03	3
89	0x2d	45
90	0x16	22
91	0xe6	-26
92	0xcf	-49
93	0xcb	-53
94	0x20	32
95	0xbb	-69
96	0xf7	-9
97	0x1e	30
98	0x09	9
99	0x34	52
100	0x00	0
101	0x3f	63
102	0x19	25
103	0x54	84
104	0x3b	59
105	0x26	38
106	0xfc	-4
107	0xb8	-72
108	0x24	36
109	0xa6	-90
110	0x13	19
111	0xe8	-24
112	0x28	40
113	0x14	20
114	0x43	67
115	0x3b	59
116	0x41	65
117	0xe4	-28
118	0x3c	60
119	0x2b	43
120	0xff	-1
121	0xbd	-67
122	0x05	5
123	0x1e	30
124	0x31	49
125	0x00	0
126	0xd9	-39
127	0x12	18
128	0x16	22
129	0x4e	78
130	0x2f	47
131	0xd0	-48
132	0x14	20
133	0x14	20
134	0x45	69
135	0x1f	31
136	0x30	48
137	0xbd	-67
138	0x10	16
139	0x23	35
140	0x22	34
141	0x51	81
142	0xc3	-61
143	0x2f	47
144	0x3e	62
145	0xee	-18
146	0xf9	-7
147	0xd4	-44
148	0xf8	-8
149	0x1b	27
150	0x06	6
151	0x0e	14
152	0xda	-38
153	0xe9	-23
154	0xba	-70
155	0x31	49
156	0x51	81
157	0x33	51
158	0xe2	-30
159	0xaf	-81
160	0xed	-19
161	0x15	21
162	0x4f	79
163	0x15	21
164	0xd5	-43
165	0xe4	-28
166	0xfb	-5
167	0xb0	-80
168	0xe5	-27
169	0x1c	28
170	0xcc	-52
171	0x21	33
172	0xd9	-39
173	0x01	1
174	0x3e	62
175	0xd1	-47
176	0x49	73
177	0xe9	-23
178	0x23	35
179	0xc8	-56
180	0xde	-34
181	0xc6	-58
182	0x2e	46
183	0xfe	-2
184	0x34	52
185	0x23	35
186	0x21	33
187	0x43	67
188	0x0f	15
189	0xd0	-48
190	0x03	3
191	0x11	17
192	0xe7	-25
193	0xd9	-39
194	0x17	23
195	0x0b	11
196	0x39	57
197	0xfb	-5
198	0xdf	-33
199	0x56	86
200	0x0b	11
201	0x17	23
202	0x44	68
203	0xd2	-46
204	0x06	6
205	0x1c	28
206	0x2f	47
207	0x13	19
208	0xf9	-7
209	0xfb	-5
210	0x44	68
211	0x4f	79
212	0x07	7
213	0x2e	46
214	0xf9	-7
215	0x3b	59
216	0xfd	-3
217	0x05	5
218	0x4f	79
219	0xfa	-6
220	0x3a	58
221	0x39	57
222	0xdb	-37
223	0x00	0
224	0x2c	44
225	0xdd	-35
226	0x00	0
227	0x29	41
228	0x30	48
229	0x18	24
230	0x11	17
231	0xc6	-58
232	0xcd	-51
233	0xfa	-6
234	0x2d	45
235	0x00	0
236	0xb1	-79
237	0xf5	-11
238	0x0c	12
239	0xc7	-57
240	0x4d	77
241	0x20	32
242	0x43	67
243	0x48	72
244	0x11	17
245	0x2c	44
246	0x37	55
247	0xe3	-29
248	0x30	48
249	0x1e	30
250	0x17	23
251	0x28	40
252	0x0f	15
253	0xe4	-28
254	0x31	49
255	0xd5	-43

model/conv1d_13/conv1d i1 [72, 1, 1, 48]
0	0xd6	-42
1	0xc7	-57
2	0x12	18
3	0xec	-20
4	0xe5	-27
5	0x13	19
6	0x23	35
7	0x81	-127
8	0xf5	-11
9	0xd5	-43
10	0x5c	92
11	0x00	0
12	0xfb	-5
13	0xde	-34
14	0x2c	44
15	0xea	-22
16	0xdd	-35
17	0xed	-19
18	0x28	40
19	0xe3	-29
20	0xbe	-66
21	0xd3	-45
22	0xf8	-8
23	0xf8	-8
24	0xec	-20
25	0x5c	92
26	0xea	-22
27	0x0f	15
28	0x24	36
29	0xc7	-57
30	0xab	-85
31	0xec	-20
32	0x1e	30
33	0x0a	10
34	0xec	-20
35	0xd9	-39
36	0xd5	-43
37	0xbe	-66
38	0x0a	10
39	0xe8	-24
40	0xd7	-41
41	0xc9	-55
42	0x0d	13
43	0xf6	-10
44	0x17	23
45	0xdb	-37
46	0x04	4
47	0x0b	11
48	0xbe	-66
49	0x70	112
50	0xf0	-16
51	0x08	8
52	0x34	52
53	0x54	84
54	0x45	69
55	0x32	50
56	0xe3	-29
57	0xf5	-11
58	0x36	54
59	0x6e	110
60	0x19	25
61	0xa3	-93
62	0x1a	26
63	0xdd	-35
64	0xac	-84
65	0x18	24
66	0x42	66
67	0x01	1
68	0xdf	-33
69	0xa4	-92
70	0x64	100
71	0x14	20
72	0xcf	-49
73	0xe5	-27
74	0x07	7
75	0x02	2
76	0xe7	-25
77	0x34	52
78	0xf2	-14
79	0xf2	-14
80	0xe7	-25
81	0x7f	127
82	0x2e	46
83	0x73	115
84	0xc3	-61
85	0x60	96
86	0x24	36
87	0x21	33
88	0x10	16
89	0x0d	13
90	0x01	1
91	0x6b	107
92	0xff	-1
93	0x4e	78
94	0xd1	-47
95	0xcc	-52
96	0xa5	-91
97	0x32	50
98	0xc1	-63
99	0x06	6
100	0x0d	13
101	0x4f	79
102	0x27	39
103	0xf3	-13
104	0xe2	-30
105	0xfb	-5
106	0x78	120
107	0x30	48
108	0x1a	26
109	0x0d	13
110	0x7f	127
111	0xca	-54
112	0xfc	-4
113	0xf5	-11
114	0xfe	-2
115	0x16	22
116	0x20	32
117	0x06	6
118	0x1c	28
119	0x19	25
120	0x46	70
121	0x35	53
122	0xf6	-10
123	0x09	9
124	0x4d	77
125	0xfc	-4
126	0xde	-34
127	0x65	101
128	0x48	72
129	0xd8	-40
130	0xbc	-68
131	0x07	7
132	0x1f	31
133	0xe5	-27
134	0xe0	-32
135	0x4d	77
136	0xfd	-3
137	0xed	-19
138	0xe0	-32
139	0x5a	90
140	0xcd	-51
141	0x3c	60
142	0x53	83
143	0x49	73
144	0x72	114
145	0x24	36
146	0xc9	-55
147	0xc7	-57
148	0x27	39
149	0xaa	-86
150	0x28	40
151	0x87	-121
152	0x35	53
153	0x5c	92
154	0x3a	58
155	0xc2	-62
156	0x05	5
157	0x75	117
158	0x83	-125
159	0xe0	-32
160	0x25	37
161	0x81	-127
162	0x83	-125
163	0x16	22
164	0x98	-104
165	0x25	37
166	0x4e	78
167	0x23	35
168	0xb3	-77
169	0x08	8
170	0xbf	-65
171	0x1f	31
172	0xdc	-36
173	0xbf	-65
174	0x07	7
175	0x30	48
176	0x04	4
177	0x48	72
178	0x4c	76
179	0xe1	-31
180	0x49	73
181	0x3d	61
182	0x13	19
183	0xdd	-35
184	0xbf	-65
185	0xde	-34
186	0x14	20
187	0x3c	60
188	0xd3	-45
189	0xb2	-78
190	0xf8	-8
191	0x01	1
192	0x3d	61
193	0xd8	-40
194	0xfd	-3
195	0x12	18
196	0x1f	31
197	0x4e	78
198	0x06	6
199	0x31	49
200	0x7f	127
201	0xf0	-16
202	0xf3	-13
203	0x13	19
204	0x21	33
205	0xc2	-62
206	0xd6	-42
207	0x36	54
208	0x2a	42
209	0x4a	74
210	0x07	7
211	0x0a	10
212	0x59	89
213	0x0d	13
214	0xe6	-26
215	0x4b	75
216	0xbe	-66
217	0x24	36
218	0xfc	-4
219	0xb1	-79
220	0xfe	-2
221	0x1b	27
222	0x2f	47
223	0x09	9
224	0xd1	-47
225	0xde	-34
226	0x48	72
227	0x53	83
228	0x0c	12
229	0xfd	-3
230	0x33	51
231	0x14	20
232	0x1f	31
233	0x64	100
234	0xee	-18
235	0xfe	-2
236	0x39	57
237	0x4d	77
238	0xea	-22
239	0x18	24
240	0xe3	-29
241	0x3c	60
242	0xc8	-56
243	0x45	69
244	0x19	25
245	0x64	100
246	0xeb	-21
247	0x14	20
248	0xea	-22
249	0x57	87
250	0xea	-22
251	0x3e	62
252	0x19	25
253	0x18	24
254	0x9b	-101
255	0x19	25

model/conv1d_12/conv1d i1 [72, 1, 9, 72]
0	0x2c	44
1	0xf4	-12
2	0x25	37
3	0xfa	-6
4	0x20	32
5	0xd5	-43
6	0x0d	13
7	0xdc	-36
8	0x26	38
9	0xe1	-31
10	0x3c	60
11	0x1b	27
12	0x0f	15
13	0x0f	15
14	0x00	0
15	0xfa	-6
16	0x25	37
17	0x18	24
18	0x0e	14
19	0x52	82
20	0x32	50
21	0x2d	45
22	0x21	33
23	0x0d	13
24	0x09	9
25	0x11	17
26	0x2a	42
27	0x27	39
28	0x0c	12
29	0xe5	-27
30	0xe7	-25
31	0xfd	-3
32	0x14	20
33	0xff	-1
34	0x24	36
35	0x0e	14
36	0x21	33
37	0xe5	-27
38	0x1c	28
39	0x11	17
40	0xd8	-40
41	0x0b	11
42	0xd5	-43
43	0x14	20
44	0x0e	14
45	0x1d	29
46	0x0c	12
47	0xf3	-13
48	0x31	49
49	0x1d	29
50	0x22	34
51	0xee	-18
52	0x26	38
53	0x33	51
54	0x23	35
55	0xf0	-16
56	0xfb	-5
57	0x16	22
58	0x14	20
59	0xda	-38
60	0x09	9
61	0x2a	42
62	0xd5	-43
63	0xdc	-36
64	0xd0	-48
65	0x19	25
66	0x1d	29
67	0x2b	43
68	0x1e	30
69	0x0a	10
70	0x03	3
71	0xf1	-15
72	0x05	5
73	0x1e	30
74	0x18	24
75	0x01	1
76	0x12	18
77	0xf5	-11
78	0xfc	-4
79	0xd3	-45
80	0x0b	11
81	0xef	-17
82	0x2a	42
83	0x1d	29
84	0x2f	47
85	0x2d	45
86	0xe8	-24
87	0xd7	-41
88	0x18	24
89	0x12	18
90	0x31	49
91	0x1d	29
92	0x2f	47
93	0x25	37
94	0x2e	46
95	0xfc	-4
96	0x2e	46
97	0xf4	-12
98	0x27	39
99	0x0f	15
100	0x24	36
101	0xfe	-2
102	0xe7	-25
103	0xee	-18
104	0x21	33
105	0x17	23
106	0x1c	28
107	0xed	-19
108	0x0c	12
109	0xe1	-31
110	0x03	3
111	0x0e	14
112	0xc8	-56
113	0xf0	-16
114	0xee	-18
115	0x35	53
116	0xee	-18
117	0xf9	-7
118	0x2e	46
119	0xf9	-7
120	0x38	56
121	0x24	36
122	0x21	33
123	0x09	9
124	0x26	38
125	0x23	35
126	0xfc	-4
127	0xfc	-4
128	0x2a	42
129	0x24	36
130	0x30	48
131	0xfc	-4
132	0xfe	-2
133	0x2c	44
134	0x1e	30
135	0xd5	-43
136	0xf5	-11
137	0xfa	-6
138	0x2a	42
139	0x45	69
140	0xfc	-4
141	0x19	25
142	0x1a	26
143	0xe4	-28
144	0xfb	-5
145	0x1b	27
146	0x14	20
147	0x0f	15
148	0x42	66
149	0x20	32
150	0xed	-19
151	0xe8	-24
152	0x08	8
153	0xf4	-12
154	0x24	36
155	0xff	-1
156	0x08	8
157	0x1b	27
158	0xd1	-47
159	0xee	-18
160	0x2d	45
161	0xfe	-2
162	0x0b	11
163	0x38	56
164	0x2c	44
165	0x10	16
166	0x07	7
167	0x2c	44
168	0x20	32
169	0x00	0
170	0x2b	43
171	0x34	52
172	0x2a	42
173	0x05	5
174	0xe2	-30
175	0xfb	-5
176	0xfd	-3
177	0x26	38
178	0x1e	30
179	0x09	9
180	0x16	22
181	0xf7	-9
182	0x33	51
183	0x24	36
184	0xde	-34
185	0xcf	-49
186	0xef	-17
187	0x0b	11
188	0x29	41
189	0x01	1
190	0x0a	10
191	0x1b	27
192	0x02	2
193	0x2b	43
194	0x0d	13
195	0x05	5
196	0x1e	30
197	0x10	16
198	0x18	24
199	0xf3	-13
200	0x1e	30
201	0x0c	12
202	0x10	16
203	0xfb	-5
204	0x0f	15
205	0x09	9
206	0x15	21
207	0xe6	-26
208	0xe5	-27
209	0xf6	-10
210	0x32	50
211	0x3d	61
212	0x27	39
213	0x11	17
214	0x36	54
215	0xed	-19
216	0x1d	29
217	0xf5	-11
218	0x2d	45
219	0x16	22
220	0x46	70
221	0x37	55
222	0xcb	-53
223	0xd4	-44
224	0x1a	26
225	0xee	-18
226	0x2e	46
227	0x1e	30
228	0x0f	15
229	0x32	50
230	0xf5	-11
231	0xf1	-15
232	0x2b	43
233	0x11	17
234	0x1c	28
235	0x39	57
236	0x0f	15
237	0x2c	44
238	0x37	55
239	0x10	16
240	0x37	55
241	0x10	16
242	0x0b	11
243	0x17	23
244	0x0e	14
245	0x05	5
246	0xfe	-2
247	0x10	16
248	0x08	8
249	0x1f	31
250	0xff	-1
251	0xed	-19
252	0x29	41
253	0xfa	-6
254	0xfb	-5
255	0x09	9

model/conv1d_11/conv1d f4 [72]
0	0x00000000	0.0
1	0x00000000	0.0
2	0x00000000	0.0
3	0x00000000	0.0
4	0x00000000	0.0
5	0x00000000	0.0
6	0x00000000	0.0
7	0x00000000	0.0
8	0x00000000	0.0
9	0x00000000	0.0
10	0x00000000	0.0
11	0x00000000	0.0
12	0x00000000	0.0
13	0x00000000	0.0
14	0x00000000	0.0
15	0x00000000	0.0
16	0x00000000	0.0
17	0x00000000	0.0
18	0x00000000	0.0
19	0x00000000	0.0
20	0x00000000	0.0
21	0x00000000	0.0
22	0x00000000	0.0
23	0x00000000	0.0
24	0x00000000	0.0
25	0x00000000	0.0
26	0x00000000	0.0
27	0x00000000	0.0
28	0x00000000	0.0
29	0x00000000	0.0
30	0x00000000	0.0
31	0x00000000	0.0
32	0x00000000	0.0
33	0x00000000	0.0
34	0x00000000	0.0
35	0x00000000	0.0
36	0x00000000	0.0
37	0x00000000	0.0
38	0x00000000	0.0
39	0x00000000	0.0
40	0x00000000	0.0
41	0x00000000	0.0
42	0x00000000	0.0
43	0x00000000	0.0
44	0x00000000	0.0
45	0x00000000	0.0
46	0x00000000	0.0
47	0x00000000	0.0
48	0x00000000	0.0
49	0x00000000	0.0
50	0x00000000	0.0
51	0x00000000	0.0
52	0x00000000	0.0
53	0x00000000	0.0
54	0x00000000	0.0
55	0x00000000	0.0
56	0x00000000	0.0
57	0x00000000	0.0
58	0x00000000	0.0
59	0x00000000	0.0
60	0x00000000	0.0
61	0x00000000	0.0
62	0x00000000	0.0
63	0x00000000	0.0
64	0x00000000	0.0
65	0x00000000	0.0
66	0x00000000	0.0
67	0x00000000	0.0
68	0x00000000	0.0
69	0x00000000	0.0
70	0x00000000	0.0
71	0x00000000	0.0

model/conv1d_11/conv1d1 i1 [72, 1, 9, 48]
0	0x30	48
1	0x9c	-100
2	0x96	-106
3	0xf0	-16
4	0x42	66
5	0xdd	-35
6	0x8a	-118
7	0x95	-107
8	0x15	21
9	0xff	-1
10	0x1a	26
11	0xf3	-13
12	0x62	98
13	0xb6	-74
14	0x19	25
15	0x2b	43
16	0x5a	90
17	0xcd	-51
18	0xe6	-26
19	0x3b	59
20	0x57	87
21	0x09	9
22	0x18	24
23	0xe8	-24
24	0x3e	62
25	0xf5	-11
26	0x5f	95
27	0xf3	-13
28	0x87	-121
29	0x67	103
30	0xff	-1
31	0xaf	-81
32	0x40	64
33	0xd4	-44
34	0xf5	-11
35	0xbc	-68
36	0xd4	-44
37	0xe8	-24
38	0xe3	-29
39	0xdb	-37
40	0xfd	-3
41	0xd7	-41
42	0x14	20
43	0xb0	-80
44	0xd5	-43
45	0x38	56
46	0x35	53
47	0xce	-50
48	0x0b	11
49	0x1b	27
50	0xca	-54
51	0xe8	-24
52	0x49	73
53	0xd9	-39
54	0x28	40
55	0xbf	-65
56	0xad	-83
57	0x2b	43
58	0x00	0
59	0x20	32
60	0xa5	-91
61	0x9f	-97
62	0x10	16
63	0x40	64
64	0x06	6
65	0xa4	-92
66	0x0b	11
67	0x5a	90
68	0x07	7
69	0x77	119
70	0x32	50
71	0x28	40
72	0xfe	-2
73	0x51	81
74	0x13	19
75	0x08	8
76	0xf6	-10
77	0x28	40
78	0xfe	-2
79	0x4e	78
80	0x18	24
81	0xed	-19
82	0xd6	-42
83	0x8d	-115
84	0xca	-54
85	0x3e	62
86	0x0b	11
87	0x0f	15
88	0x13	19
89	0xf1	-15
90	0x49	73
91	0x05	5
92	0xcb	-53
93	0x41	65
94	0x50	80
95	0xa2	-94
96	0xd9	-39
97	0x7e	126
98	0x51	81
99	0xd7	-41
100	0x62	98
101	0x34	52
102	0xae	-82
103	0x52	82
104	0xf0	-16
105	0x2e	46
106	0x0f	15
107	0x49	73
108	0xc8	-56
109	0xda	-38
110	0x99	-103
111	0x50	80
112	0xc3	-61
113	0xc4	-60
114	0x9f	-97
115	0x2b	43
116	0x53	83
117	0x2b	43
118	0x4e	78
119	0x1d	29
120	0x00	0
121	0x4c	76
122	0xfa	-6
123	0xcb	-53
124	0xff	-1
125	0xf1	-15
126	0x01	1
127	0x39	57
128	0x22	34
129	0xba	-70
130	0x9b	-101
131	0xc2	-62
132	0xad	-83
133	0xf7	-9
134	0x3b	59
135	0x7b	123
136	0xe8	-24
137	0x48	72
138	0xdf	-33
139	0xf5	-11
140	0x0a	10
141	0x11	17
142	0x03	3
143	0x8b	-117
144	0x48	72
145	0x38	56
146	0xf9	-7
147	0xff	-1
148	0x64	100
149	0x03	3
150	0x43	67
151	0x42	66
152	0xd9	-39
153	0x1f	31
154	0x58	88
155	0x7a	122
156	0x05	5
157	0x01	1
158	0x50	80
159	0x59	89
160	0xea	-22
161	0xba	-70
162	0x21	33
163	0x44	68
164	0x56	86
165	0x63	99
166	0x02	2
167	0x10	16
168	0x19	25
169	0x31	49
170	0x34	52
171	0x2c	44
172	0x1f	31
173	0x20	32
174	0x25	37
175	0x50	80
176	0x3c	60
177	0x17	23
178	0xbd	-67
179	0x0b	11
180	0xed	-19
181	0x45	69
182	0x59	89
183	0x1a	26
184	0xc8	-56
185	0xe3	-29
186	0x5a	90
187	0x45	69
188	0x26	38
189	0x4b	75
190	0x66	102
191	0xcf	-49
192	0xa7	-89
193	0x3c	60
194	0x22	34
195	0x4d	77
196	0xfd	-3
197	0x40	64
198	0x25	37
199	0x1b	27
200	0x3b	59
201	0x64	100
202	0xfc	-4
203	0x51	81
204	0x18	24
205	0x03	3
206	0x58	88
207	0x10	16
208	0x6b	107
209	0x01	1
210	0x1a	26
211	0x16	22
212	0x1a	26
213	0x26	38
214	0x4d	77
215	0x35	53
216	0x40	64
217	0x16	22
218	0x0c	12
219	0x50	80
220	0x40	64
221	0xf5	-11
222	0x32	50
223	0x1e	30
224	0x40	64
225	0xef	-17
226	0x51	81
227	0x25	37
228	0x02	2
229	0x4a	74
230	0x65	101
231	0x06	6
232	0x23	35
233	0x23	35
234	0xfc	-4
235	0xc2	-62
236	0x5e	94
237	0x33	51
238	0x30	48
239	0x0e	14
240	0xcc	-52
241	0x2f	47
242	0x46	70
243	0x4e	78
244	0x54	84
245	0x47	71
246	0x6c	108
247	0x5f	95
248	0x40	64
249	0x11	17
250	0x20	32
251	0x31	49
252	0x6f	111
253	0x0c	12
254	0x2e	46
255	0x28	40

model/conv1d_10/conv1d i1 [48, 1, 9, 48]
0	0xe1	-31
1	0x0b	11
2	0xff	-1
3	0xd6	-42
4	0xf1	-15
5	0x8a	-118
6	0xdb	-37
7	0x16	22
8	0x29	41
9	0xe1	-31
10	0x2c	44
11	0xbd	-67
12	0x9a	-102
13	0x4c	76
14	0xbb	-69
15	0xfd	-3
16	0xa5	-91
17	0xfa	-6
18	0xf6	-10
19	0x10	16
20	0xe4	-28
21	0xaa	-86
22	0xfa	-6
23	0xd3	-45
24	0xf9	-7
25	0xff	-1
26	0x26	38
27	0xf4	-12
28	0x05	5
29	0xe2	-30
30	0xce	-50
31	0x01	1
32	0xc8	-56
33	0x09	9
34	0x39	57
35	0xb3	-77
36	0x08	8
37	0xea	-22
38	0x9b	-101
39	0xa7	-89
40	0xda	-38
41	0xb8	-72
42	0xd6	-42
43	0xe4	-28
44	0xf4	-12
45	0xc9	-55
46	0xe1	-31
47	0x2e	46
48	0xdc	-36
49	0x35	53
50	0xe0	-32
51	0xd0	-48
52	0x19	25
53	0xdc	-36
54	0x97	-105
55	0xf3	-13
56	0xe4	-28
57	0x02	2
58	0x49	73
59	0xd3	-45
60	0xc7	-57
61	0x32	50
62	0xbc	-68
63	0xdf	-33
64	0xaf	-81
65	0x0b	11
66	0xb4	-76
67	0x16	22
68	0xd2	-46
69	0xc2	-62
70	0xcf	-49
71	0xd6	-42
72	0x18	24
73	0xda	-38
74	0xe4	-28
75	0xfc	-4
76	0x1a	26
77	0x45	69
78	0xd1	-47
79	0x0d	13
80	0xca	-54
81	0xdb	-37
82	0x18	24
83	0xdb	-37
84	0xe2	-30
85	0xe2	-30
86	0xc7	-57
87	0x27	39
88	0xd8	-40
89	0x23	35
90	0x30	48
91	0xfd	-3
92	0x00	0
93	0x27	39
94	0xf4	-12
95	0x1d	29
96	0xfd	-3
97	0x01	1
98	0x30	48
99	0x16	22
100	0xab	-85
101	0xf5	-11
102	0xf8	-8
103	0xaf	-81
104	0x42	66
105	0x12	18
106	0x2c	44
107	0xb1	-79
108	0xc7	-57
109	0x46	70
110	0x85	-123
111	0xdc	-36
112	0xd7	-41
113	0x13	19
114	0xdc	-36
115	0xca	-54
116	0x09	9
117	0xdc	-36
118	0xcd	-51
119	0xc8	-56
120	0xec	-20
121	0x3e	62
122	0x59	89
123	0xfc	-4
124	0x28	40
125	0x06	6
126	0xcb	-53
127	0x00	0
128	0xe1	-31
129	0x06	6
130	0x1f	31
131	0xd3	-45
132	0x23	35
133	0xbf	-65
134	0xa5	-91
135	0x31	49
136	0x16	22
137	0x23	35
138	0xd2	-46
139	0x2e	46
140	0xcb	-53
141	0xd2	-46
142	0x0e	14
143	0x3f	63
144	0xfe	-2
145	0x15	21
146	0x29	41
147	0x83	-125
148	0xea	-22
149	0xf6	-10
150	0x98	-104
151	0xf1	-15
152	0xf5	-11
153	0xd6	-42
154	0x26	38
155	0xac	-84
156	0xe5	-27
157	0x00	0
158	0xd2	-46
159	0x2a	42
160	0x11	17
161	0x2e	46
162	0xde	-34
163	0xbf	-65
164	0xb1	-79
165	0x0e	14
166	0xba	-70
167	0xcb	-53
168	0x30	48
169	0xc9	-55
170	0xbc	-68
171	0x1f	31
172	0x0d	13
173	0xf5	-11
174	0xf1	-15
175	0x2a	42
176	0xae	-82
177	0xf8	-8
178	0x17	23
179	0xc7	-57
180	0x01	1
181	0xc0	-64
182	0xe1	-31
183	0xcd	-51
184	0xc2	-62
185	0x2b	43
186	0xcc	-52
187	0xd3	-45
188	0x05	5
189	0xd7	-41
190	0xbe	-66
191	0x34	52
192	0xf6	-10
193	0xd8	-40
194	0xfa	-6
195	0xcb	-53
196	0xca	-54
197	0x16	22
198	0x06	6
199	0xd3	-45
200	0x26	38
201	0xc9	-55
202	0xca	-54
203	0xac	-84
204	0x89	-119
205	0x08	8
206	0xbc	-68
207	0xc3	-61
208	0xee	-18
209	0xd9	-39
210	0xc7	-57
211	0xe0	-32
212	0xda	-38
213	0xdd	-35
214	0xd5	-43
215	0xc9	-55
216	0xe3	-29
217	0x42	66
218	0xb8	-72
219	0xac	-84
220	0x16	22
221	0xf0	-16
222	0x00	0
223	0xf8	-8
224	0xf8	-8
225	0xd3	-45
226	0xd9	-39
227	0xd7	-41
228	0x41	65
229	0xf0	-16
230	0xb4	-76
231	0xb2	-78
232	0xc6	-58
233	0x21	33
234	0xf3	-13
235	0xf7	-9
236	0xc1	-63
237	0xb4	-76
238	0xf4	-12
239	0x1e	30
240	0x38	56
241	0xc7	-57
242	0x0c	12
243	0x0a	10
244	0x26	38
245	0x36	54
246	0xe0	-32
247	0x34	52
248	0x0c	12
249	0xe7	-25
250	0x0c	12
251	0xb8	-72
252	0xd5	-43
253	0xe9	-23
254	0x05	5
255	0x15	21

model/conv1d_9/conv1d i1 [48, 1, 9, 48]
0	0x0e	14
1	0x01	1
2	0xce	-50
3	0xed	-19
4	0x32	50
5	0x03	3
6	0x9e	-98
7	0xe2	-30
8	0x0b	11
9	0x0e	14
10	0x0d	13
11	0xda	-38
12	0xfb	-5
13	0xb9	-71
14	0x07	7
15	0xfd	-3
16	0xbe	-66
17	0x3b	59
18	0x28	40
19	0xef	-17
20	0xc9	-55
21	0xe7	-25
22	0xf3	-13
23	0x35	53
24	0x99	-103
25	0x93	-109
26	0xe4	-28
27	0x3b	59
28	0x81	-127
29	0xfb	-5
30	0xc1	-63
31	0x9f	-97
32	0xf3	-13
33	0xcf	-49
34	0x49	73
35	0xbf	-65
36	0xfb	-5
37	0x07	7
38	0xb5	-75
39	0xf7	-9
40	0xd5	-43
41	0xd7	-41
42	0xec	-20
43	0x20	32
44	0xee	-18
45	0xd0	-48
46	0xa5	-91
47	0xcf	-49
48	0x12	18
49	0x04	4
50	0x25	37
51	0x3a	58
52	0x35	53
53	0xd0	-48
54	0xae	-82
55	0x01	1
56	0x18	24
57	0xf6	-10
58	0xff	-1
59	0xb8	-72
60	0x2c	44
61	0x2f	47
62	0x25	37
63	0xe5	-27
64	0xda	-38
65	0x54	84
66	0x19	25
67	0xd0	-48
68	0xce	-50
69	0x16	22
70	0x09	9
71	0x35	53
72	0xbb	-69
73	0xe4	-28
74	0xd2	-46
75	0x0f	15
76	0xf0	-16
77	0x15	21
78	0x17	23
79	0xf5	-11
80	0x25	37
81	0xcb	-53
82	0x32	50
83	0xe8	-24
84	0xc0	-64
85	0x2c	44
86	0xb1	-79
87	0xfe	-2
88	0x26	38
89	0xed	-19
90	0x0a	10
91	0x16	22
92	0x9f	-97
93	0xf9	-7
94	0xf8	-8
95	0x20	32
96	0x36	54
97	0xc9	-55
98	0xc2	-62
99	0xe0	-32
100	0xf7	-9
101	0x06	6
102	0x8c	-116
103	0x01	1
104	0xe4	-28
105	0x11	17
106	0x50	80
107	0xd3	-45
108	0xf2	-14
109	0x10	16
110	0x08	8
111	0xed	-19
112	0xeb	-21
113	0x3d	61
114	0xdd	-35
115	0xf7	-9
116	0xf0	-16
117	0x05	5
118	0x03	3
119	0xf1	-15
120	0xee	-18
121	0xc9	-55
122	0xc7	-57
123	0x12	18
124	0xb7	-73
125	0x00	0
126	0xc4	-60
127	0xf0	-16
128	0x14	20
129	0x93	-109
130	0x27	39
131	0xca	-54
132	0x0f	15
133	0x22	34
134	0xed	-19
135	0xda	-38
136	0x0e	14
137	0xf7	-9
138	0x18	24
139	0xe2	-30
140	0xa2	-94
141	0xd7	-41
142	0xa9	-87
143	0xdb	-37
144	0x35	53
145	0xfb	-5
146	0xcc	-52
147	0xcd	-51
148	0x06	6
149	0x17	23
150	0xf1	-15
151	0x0d	13
152	0x04	4
153	0x2c	44
154	0x5a	90
155	0xd9	-39
156	0x0b	11
157	0xf2	-14
158	0xfa	-6
159	0x06	6
160	0xfd	-3
161	0x22	34
162	0x26	38
163	0xdb	-37
164	0xd6	-42
165	0xf2	-14
166	0xe5	-27
167	0xe9	-23
168	0xf8	-8
169	0x08	8
170	0xed	-19
171	0xf0	-16
172	0x3d	61
173	0x12	18
174	0xc6	-58
175	0xe5	-27
176	0x39	57
177	0xed	-19
178	0x0d	13
179	0xf9	-7
180	0x00	0
181	0x00	0
182	0x00	0
183	0xfb	-5
184	0xf5	-11
185	0x00	0
186	0xce	-50
187	0x1e	30
188	0xc6	-58
189	0xfc	-4
190	0xfc	-4
191	0x0c	12
192	0x43	67
193	0x20	32
194	0x21	33
195	0x11	17
196	0x40	64
197	0x02	2
198	0x9e	-98
199	0xe5	-27
200	0x38	56
201	0x4c	76
202	0x5d	93
203	0x1d	29
204	0x20	32
205	0x18	24
206	0x19	25
207	0x3b	59
208	0x1d	29
209	0x0d	13
210	0x19	25
211	0xe6	-26
212	0x0f	15
213	0x09	9
214	0x33	51
215	0xf2	-14
216	0xe2	-30
217	0xf3	-13
218	0xe7	-25
219	0xf7	-9
220	0xb1	-79
221	0x1d	29
222	0xc3	-61
223	0xec	-20
224	0x3a	58
225	0x2f	47
226	0x54	84
227	0xc8	-56
228	0x31	49
229	0x1b	27
230	0x0b	11
231	0x3c	60
232	0x25	37
233	0x2f	47
234	0x0b	11
235	0xca	-54
236	0xb9	-71
237	0xf2	-14
238	0xd6	-42
239	0x1c	28
240	0x02	2
241	0xd1	-47
242	0xe3	-29
243	0xf9	-7
244	0x22	34
245	0x08	8
246	0x92	-110
247	0xcd	-51
248	0x1c	28
249	0x3a	58
250	0x27	39
251	0xcc	-52
252	0xef	-17
253	0x4b	75
254	0x3b	59
255	0x02	2

model/conv1d_8/conv1d i1 [48, 1, 1, 36]
0	0x0a	10
1	0x21	33
2	0xf7	-9
3	0xcf	-49
4	0x10	16
5	0x8a	-118
6	0x5e	94
7	0x89	-119
8	0x02	2
9	0x14	20
10	0x33	51
11	0x31	49
12	0x1e	30
13	0xc6	-58
14	0x20	32
15	0x0c	12
16	0xfa	-6
17	0x7f	127
18	0xe0	-32
19	0x3d	61
20	0xc4	-60
21	0xfa	-6
22	0x34	52
23	0x81	-127
24	0xe6	-26
25	0x15	21
26	0x35	53
27	0x9b	-101
28	0xdd	-35
29	0x55	85
30	0x21	33
31	0x03	3
32	0xba	-70
33	0x1d	29
34	0xb9	-71
35	0x36	54
36	0x78	120
37	0xe5	-27
38	0xe3	-29
39	0xb8	-72
40	0xf2	-14
41	0xf8	-8
42	0xe6	-26
43	0xe3	-29
44	0x01	1
45	0xf1	-15
46	0x4e	78
47	0x7f	127
48	0xfb	-5
49	0x3f	63
50	0x69	105
51	0x0b	11
52	0x1e	30
53	0x33	51
54	0x40	64
55	0xf6	-10
56	0x2b	43
57	0x1d	29
58	0x03	3
59	0x37	55
60	0xe7	-25
61	0x1e	30
62	0xe9	-23
63	0xc7	-57
64	0x47	71
65	0x38	56
66	0x1f	31
67	0x05	5
68	0xe7	-25
69	0x17	23
70	0x61	97
71	0x31	49
72	0x49	73
73	0x0f	15
74	0x92	-110
75	0xc8	-56
76	0xed	-19
77	0x0f	15
78	0x09	9
79	0x51	81
80	0x4e	78
81	0xe2	-30
82	0xfd	-3
83	0xe4	-28
84	0x2e	46
85	0x21	33
86	0xd0	-48
87	0x44	68
88	0x04	4
89	0x0c	12
90	0x91	-111
91	0xe8	-24
92	0x4d	77
93	0xda	-38
94	0x32	50
95	0x81	-127
96	0xf9	-7
97	0xa8	-88
98	0xfa	-6
99	0xb4	-76
100	0x05	5
101	0x18	24
102	0xb3	-77
103	0xf3	-13
104	0xf7	-9
105	0xb9	-71
106	0x24	36
107	0x0a	10
108	0x6f	111
109	0xf1	-15
110	0xd7	-41
111	0xcb	-53
112	0x00	0
113	0xc0	-64
114	0xd5	-43
115	0x23	35
116	0x27	39
117	0xbc	-68
118	0x12	18
119	0x24	36
120	0xe4	-28
121	0x33	51
122	0x30	48
123	0xec	-20
124	0xf2	-14
125	0x1c	28
126	0xa8	-88
127	0x07	7
128	0x11	17
129	0xc5	-59
130	0xf6	-10
131	0xf9	-7
132	0x2d	45
133	0x32	50
134	0x32	50
135	0xd6	-42
136	0xf9	-7
137	0x81	-127
138	0xbd	-67
139	0xcb	-53
140	0x3f	63
141	0xdc	-36
142	0x3c	60
143	0x47	71
144	0x1f	31
145	0x81	-127
146	0xd7	-41
147	0x22	34
148	0x17	23
149	0x5a	90
150	0x9a	-102
151	0x54	84
152	0x3a	58
153	0x41	65
154	0x16	22
155	0xd7	-41
156	0xbd	-67
157	0xef	-17
158	0x40	64
159	0xd3	-45
160	0xbe	-66
161	0xb9	-71
162	0x23	35
163	0xb7	-73
164	0x10	16
165	0x0a	10
166	0xc4	-60
167	0x27	39
168	0x34	52
169	0xd5	-43
170	0xdd	-35
171	0xc1	-63
172	0xf7	-9
173	0xc8	-56
174	0x14	20
175	0x25	37
176	0x2a	42
177	0xed	-19
178	0xd6	-42
179	0xc3	-61
180	0x20	32
181	0xd7	-41
182	0x55	85
183	0x37	55
184	0x2b	43
185	0xe7	-25
186	0x01	1
187	0xd5	-43
188	0xed	-19
189	0x1f	31
190	0x34	52
191	0x30	48
192	0xd5	-43
193	0x5b	91
194	0x46	70
195	0x03	3
196	0x7f	127
197	0x6e	110
198	0x8e	-114
199	0xc4	-60
200	0xd3	-45
201	0xec	-20
202	0x4a	74
203	0xae	-82
204	0x1d	29
205	0xc7	-57
206	0xba	-70
207	0x04	4
208	0x07	7
209	0x66	102
210	0xe0	-32
211	0xf7	-9
212	0x6b	107
213	0x14	20
214	0x3f	63
215	0xee	-18
216	0xce	-50
217	0xe1	-31
218	0x6a	106
219	0x33	51
220	0xb0	-80
221	0x1c	28
222	0x00	0
223	0x0e	14
224	0xea	-22
225	0xc5	-59
226	0xd0	-48
227	0x13	19
228	0x3c	60
229	0x26	38
230	0xee	-18
231	0xdd	-35
232	0xfa	-6
233	0xfc	-4
234	0xc6	-58
235	0x0b	11
236	0xbf	-65
237	0x18	24
238	0x2e	46
239	0x7f	127
240	0xf2	-14
241	0xe7	-25
242	0xe0	-32
243	0xe8	-24
244	0x1a	26
245	0xc7	-57
246	0x74	116
247	0x03	3
248	0xfb	-5
249	0x05	5
250	0x12	18
251	0xc2	-62
252	0x7e	126
253	0xab	-85
254	0x11	17
255	0x04	4

model/conv1d_7/conv1d i1 [48, 1, 9, 48]
0	0x02	2
1	0xe8	-24
2	0xd0	-48
3	0xe7	-25
4	0xfe	-2
5	0xde	-34
6	0xf1	-15
7	0xf9	-7
8	0xe3	-29
9	0xfc	-4
10	0x01	1
11	0x00	0
12	0x02	2
13	0x16	22
14	0x0f	15
15	0xea	-22
16	0x9f	-97
17	0xee	-18
18	0xf4	-12
19	0xc7	-57
20	0xcc	-52
21	0xd1	-47
22	0x03	3
23	0xda	-38
24	0x04	4
25	0xcd	-51
26	0xdd	-35
27	0x15	21
28	0x07	7
29	0xd7	-41
30	0xe1	-31
31	0xd2	-46
32	0x00	0
33	0x0a	10
34	0x02	2
35	0x09	9
36	0xef	-17
37	0x25	37
38	0x2d	45
39	0xd5	-43
40	0xea	-22
41	0x0b	11
42	0xf8	-8
43	0x0a	10
44	0xfc	-4
45	0x14	20
46	0x30	48
47	0xe3	-29
48	0x33	51
49	0xcd	-51
50	0xfe	-2
51	0xd1	-47
52	0x06	6
53	0x1b	27
54	0xdf	-33
55	0xe2	-30
56	0xd0	-48
57	0x01	1
58	0xf5	-11
59	0x14	20
60	0x0a	10
61	0x19	25
62	0x1d	29
63	0xdb	-37
64	0xcc	-52
65	0xfe	-2
66	0xe1	-31
67	0xfc	-4
68	0x19	25
69	0xd2	-46
70	0xfe	-2
71	0xee	-18
72	0x16	22
73	0x0f	15
74	0x06	6
75	0x29	41
76	0xf9	-7
77	0xf8	-8
78	0xf8	-8
79	0xce	-50
80	0xf7	-9
81	0x24	36
82	0xd4	-44
83	0x09	9
84	0xf4	-12
85	0x02	2
86	0xe0	-32
87	0xd3	-45
88	0x04	4
89	0xfb	-5
90	0xdc	-36
91	0xf6	-10
92	0xf9	-7
93	0xdd	-35
94	0xfb	-5
95	0xe7	-25
96	0x26	38
97	0xea	-22
98	0xf6	-10
99	0x03	3
100	0x05	5
101	0x2c	44
102	0xf7	-9
103	0x05	5
104	0xd8	-40
105	0xfe	-2
106	0xc8	-56
107	0xf5	-11
108	0x06	6
109	0xf4	-12
110	0x27	39
111	0xe5	-27
112	0xc4	-60
113	0x08	8
114	0xf3	-13
115	0xdb	-37
116	0x09	9
117	0xdc	-36
118	0xe9	-23
119	0xe8	-24
120	0x03	3
121	0xe3	-29
122	0x1e	30
123	0x27	39
124	0x0b	11
125	0xdc	-36
126	0x16	22
127	0xc7	-57
128	0x05	5
129	0x07	7
130	0xe0	-32
131	0x26	38
132	0xce	-50
133	0x08	8
134	0xdc	-36
135	0xee	-18
136	0x25	37
137	0xfb	-5
138	0xd0	-48
139	0xd9	-39
140	0x09	9
141	0x0b	11
142	0x32	50
143	0x04	4
144	0x31	49
145	0xf1	-15
146	0xd5	-43
147	0xdc	-36
148	0x04	4
149	0xfe	-2
150	0x00	0
151	0xdc	-36
152	0xe5	-27
153	0xfe	-2
154	0xef	-17
155	0xe4	-28
156	0x23	35
157	0xf7	-9
158	0xf5	-11
159	0xcd	-51
160	0xde	-34
161	0xec	-20
162	0xe6	-26
163	0xd6	-42
164	0x09	9
165	0xfa	-6
166	0x07	7
167	0x04	4
168	0x1b	27
169	0xd9	-39
170	0xf8	-8
171	0x2a	42
172	0x10	16
173	0xe7	-25
174	0x0a	10
175	0xd8	-40
176	0xef	-17
177	0x1e	30
178	0xed	-19
179	0x38	56
180	0xbc	-68
181	0xfa	-6
182	0xcf	-49
183	0xcd	-51
184	0x05	5
185	0x2c	44
186	0xf5	-11
187	0xe2	-30
188	0xf5	-11
189	0xf6	-10
190	0x2d	45
191	0xec	-20
192	0x5c	92
193	0xd3	-45
194	0xed	-19
195	0xea	-22
196	0x0b	11
197	0x11	17
198	0x11	17
199	0xf7	-9
200	0xde	-34
201	0xd6	-42
202	0xf0	-16
203	0xe2	-30
204	0x0d	13
205	0x28	40
206	0x10	16
207	0xf1	-15
208	0xf3	-13
209	0x15	21
210	0xd6	-42
211	0xe3	-29
212	0x0d	13
213	0x04	4
214	0xf0	-16
215	0xda	-38
216	0x37	55
217	0xc9	-55
218	0xef	-17
219	0x27	39
220	0x20	32
221	0xe8	-24
222	0xf6	-10
223	0xd2	-46
224	0xf8	-8
225	0x0e	14
226	0x03	3
227	0x09	9
228	0xd5	-43
229	0xe0	-32
230	0xf0	-16
231	0x03	3
232	0x16	22
233	0x2e	46
234	0x01	1
235	0x07	7
236	0x03	3
237	0x13	19
238	0x01	1
239	0xf6	-10
240	0x28	40
241	0xdc	-36
242	0xe2	-30
243	0xe4	-28
244	0xec	-20
245	0x21	33
246	0xe8	-24
247	0xd6	-42
248	0x0a	10
249	0xf8	-8
250	0xd3	-45
251	0xe7	-25
252	0x16	22
253	0x1d	29
254	0x0a	10
255	0xd2	-46

model/conv1d_6/conv1d f4 [48]
0	0x00000000	0.0
1	0x00000000	0.0
2	0x00000000	0.0
3	0x00000000	0.0
4	0x00000000	0.0
5	0x00000000	0.0
6	0x00000000	0.0
7	0x00000000	0.0
8	0x00000000	0.0
9	0x00000000	0.0
10	0x00000000	0.0
11	0x00000000	0.0
12	0x00000000	0.0
13	0x00000000	0.0
14	0x00000000	0.0
15	0x00000000	0.0
16	0x00000000	0.0
17	0x00000000	0.0
18	0x00000000	0.0
19	0x00000000	0.0
20	0x00000000	0.0
21	0x00000000	0.0
22	0x00000000	0.0
23	0x00000000	0.0
24	0x00000000	0.0
25	0x00000000	0.0
26	0x00000000	0.0
27	0x00000000	0.0
28	0x00000000	0.0
29	0x00000000	0.0
30	0x00000000	0.0
31	0x00000000	0.0
32	0x00000000	0.0
33	0x00000000	0.0
34	0x00000000	0.0
35	0x00000000	0.0
36	0x00000000	0.0
37	0x00000000	0.0
38	0x00000000	0.0
39	0x00000000	0.0
40	0x00000000	0.0
41	0x00000000	0.0
42	0x00000000	0.0
43	0x00000000	0.0
44	0x00000000	0.0
45	0x00000000	0.0
46	0x00000000	0.0
47	0x00000000	0.0

model/conv1d_6/conv1d1 i1 [48, 1, 9, 36]
0	0x39	57
1	0xfd	-3
2	0x08	8
3	0xe7	-25
4	0x5a	90
5	0xb8	-72
6	0x14	20
7	0xf2	-14
8	0x0a	10
9	0xd9	-39
10	0xc5	-59
11	0xff	-1
12	0x2e	46
13	0xfe	-2
14	0xf1	-15
15	0xff	-1
16	0x3b	59
17	0x33	51
18	0xf2	-14
19	0xea	-22
20	0x2d	45
21	0x16	22
22	0xda	-38
23	0x93	-109
24	0x95	-107
25	0x16	22
26	0x2b	43
27	0xb4	-76
28	0x38	56
29	0xb9	-71
30	0xfa	-6
31	0xf1	-15
32	0xd5	-43
33	0x2a	42
34	0x0e	14
35	0x37	55
36	0xfe	-2
37	0x0a	10
38	0x27	39
39	0xce	-50
40	0x43	67
41	0xc3	-61
42	0x4c	76
43	0xdc	-36
44	0xff	-1
45	0xdb	-37
46	0xcc	-52
47	0x22	34
48	0x43	67
49	0x13	19
50	0xe2	-30
51	0xf3	-13
52	0x1e	30
53	0x62	98
54	0xca	-54
55	0x14	20
56	0x1a	26
57	0xff	-1
58	0xb5	-75
59	0xae	-82
60	0xa1	-95
61	0x17	23
62	0x31	49
63	0x81	-127
64	0x12	18
65	0xce	-50
66	0x07	7
67	0x39	57
68	0xad	-83
69	0x38	56
70	0x35	53
71	0x2d	45
72	0x42	66
73	0x11	17
74	0x17	23
75	0xf1	-15
76	0x59	89
77	0xd4	-44
78	0x34	52
79	0xee	-18
80	0xf3	-13
81	0xfd	-3
82	0x05	5
83	0x40	64
84	0x3d	61
85	0x1f	31
86	0x03	3
87	0x27	39
88	0x11	17
89	0x21	33
90	0xd5	-43
91	0x11	17
92	0x3f	63
93	0x16	22
94	0xc5	-59
95	0xb7	-73
96	0xc7	-57
97	0xf8	-8
98	0x07	7
99	0x97	-105
100	0x2b	43
101	0xd6	-42
102	0x13	19
103	0xf4	-12
104	0x9f	-97
105	0x48	72
106	0xff	-1
107	0x53	83
108	0x28	40
109	0x12	18
110	0x2f	47
111	0xdb	-37
112	0x51	81
113	0xb4	-76
114	0x4b	75
115	0xca	-54
116	0xee	-18
117	0xdd	-35
118	0xe0	-32
119	0xfa	-6
120	0x2a	42
121	0x13	19
122	0xef	-17
123	0x1f	31
124	0xfe	-2
125	0x51	81
126	0xcb	-53
127	0x26	38
128	0x21	33
129	0xf4	-12
130	0xd8	-40
131	0xa7	-89
132	0x99	-103
133	0xf5	-11
134	0x13	19
135	0x8d	-115
136	0x27	39
137	0xfb	-5
138	0x07	7
139	0x34	52
140	0xe6	-26
141	0x29	41
142	0x04	4
143	0x3e	62
144	0x38	56
145	0x26	38
146	0x44	68
147	0xec	-20
148	0x55	85
149	0xc9	-55
150	0x20	32
151	0xed	-19
152	0x03	3
153	0xf2	-14
154	0xe9	-23
155	0x19	25
156	0x1f	31
157	0x27	39
158	0x18	24
159	0x12	18
160	0x19	25
161	0x39	57
162	0xba	-70
163	0xfd	-3
164	0x11	17
165	0x0a	10
166	0xf4	-12
167	0xb1	-79
168	0xcd	-51
169	0x01	1
170	0x33	51
171	0xa9	-87
172	0xff	-1
173	0xe9	-23
174	0x1d	29
175	0x0d	13
176	0xc9	-55
177	0x3c	60
178	0x22	34
179	0x5e	94
180	0x23	35
181	0xee	-18
182	0x27	39
183	0xd7	-41
184	0x45	69
185	0xdb	-37
186	0x4b	75
187	0xe9	-23
188	0x04	4
189	0xed	-19
190	0xf0	-16
191	0x19	25
192	0x21	33
193	0x0c	12
194	0x15	21
195	0x18	24
196	0x24	36
197	0x31	49
198	0xc9	-55
199	0xd5	-43
200	0x40	64
201	0x04	4
202	0xd3	-45
203	0xc9	-55
204	0xb0	-80
205	0x1a	26
206	0x03	3
207	0xad	-83
208	0xfd	-3
209	0xdd	-35
210	0xf3	-13
211	0x0e	14
212	0xe2	-30
213	0x27	39
214	0x21	33
215	0x22	34
216	0x00	0
217	0xdb	-37
218	0x30	48
219	0xe1	-31
220	0x44	68
221	0xed	-19
222	0x50	80
223	0x09	9
224	0xf9	-7
225	0xd9	-39
226	0xf2	-14
227	0x16	22
228	0x2b	43
229	0x05	5
230	0xef	-17
231	0x0e	14
232	0x3f	63
233	0x0d	13
234	0xd6	-42
235	0xe1	-31
236	0x29	41
237	0x14	20
238	0xfa	-6
239	0xaa	-86
240	0xba	-70
241	0xfd	-3
242	0x19	25
243	0x81	-127
244	0x01	1
245	0xef	-17
246	0x1d	29
247	0x1e	30
248	0xd1	-47
249	0x3b	59
250	0x1d	29
251	0x5d	93
252	0x21	33
253	0xdd	-35
254	0x08	8
255	0xec	-20

model/conv1d_5/conv1d i1 [36, 1, 9, 36]
0	0x08	8
1	0x59	89
2	0xb0	-80
3	0x08	8
4	0x22	34
5	0xc4	-60
6	0xbc	-68
7	0xb3	-77
8	0xe1	-31
9	0xe6	-26
10	0xdc	-36
11	0xde	-34
12	0xb5	-75
13	0x03	3
14	0xfc	-4
15	0x38	56
16	0xcf	-49
17	0x2a	42
18	0x2f	47
19	0xa9	-87
20	0x0e	14
21	0xc1	-63
22	0xf9	-7
23	0xde	-34
24	0xd9	-39
25	0xb7	-73
26	0x55	85
27	0xe7	-25
28	0xe3	-29
29	0xc8	-56
30	0xa7	-89
31	0x46	70
32	0x2a	42
33	0x20	32
34	0x32	50
35	0x1e	30
36	0x3a	58
37	0x6b	107
38	0xb1	-79
39	0x1f	31
40	0xcf	-49
41	0xb3	-77
42	0xab	-85
43	0xd9	-39
44	0xe8	-24
45	0xca	-54
46	0xe5	-27
47	0xe9	-23
48	0xdd	-35
49	0x0e	14
50	0x05	5
51	0x1f	31
52	0x11	17
53	0xf1	-15
54	0x1f	31
55	0xda	-38
56	0x19	25
57	0xc0	-64
58	0xdd	-35
59	0xe5	-27
60	0xb8	-72
61	0xec	-20
62	0x26	38
63	0x53	83
64	0xe6	-26
65	0xe3	-29
66	0xec	-20
67	0x49	73
68	0x24	36
69	0x36	54
70	0x16	22
71	0xfb	-5
72	0xf9	-7
73	0x22	34
74	0x9b	-101
75	0x0b	11
76	0xdb	-37
77	0x81	-127
78	0xf6	-10
79	0xf2	-14
80	0xf1	-15
81	0xd0	-48
82	0xda	-38
83	0xf0	-16
84	0xd5	-43
85	0xde	-34
86	0xf0	-16
87	0x0e	14
88	0xee	-18
89	0xbf	-65
90	0x31	49
91	0xe2	-30
92	0x21	33
93	0xf8	-8
94	0x1b	27
95	0xd1	-47
96	0x06	6
97	0xe7	-25
98	0x2c	44
99	0xef	-17
100	0xce	-50
101	0x0d	13
102	0xed	-19
103	0x1e	30
104	0x35	53
105	0x3d	61
106	0x1f	31
107	0x47	71
108	0x0e	14
109	0x19	25
110	0xb2	-78
111	0xcb	-53
112	0x0b	11
113	0xdc	-36
114	0xf3	-13
115	0xcf	-49
116	0xfa	-6
117	0xe6	-26
118	0x17	23
119	0xee	-18
120	0xf0	-16
121	0x01	1
122	0xcd	-51
123	0x05	5
124	0x1b	27
125	0x17	23
126	0x01	1
127	0xbe	-66
128	0x59	89
129	0xc3	-61
130	0x3f	63
131	0xdb	-37
132	0xe2	-30
133	0xf8	-8
134	0x35	53
135	0x18	24
136	0xd7	-41
137	0xcf	-49
138	0xdf	-33
139	0xf7	-9
140	0x57	87
141	0x0d	13
142	0x37	55
143	0x1b	27
144	0x3f	63
145	0x74	116
146	0xdb	-37
147	0xe1	-31
148	0x28	40
149	0xd8	-40
150	0xc3	-61
151	0xae	-82
152	0x46	70
153	0x82	-126
154	0xd0	-48
155	0xc3	-61
156	0xc0	-64
157	0x27	39
158	0x03	3
159	0x56	86
160	0xc8	-56
161	0x2d	45
162	0x2d	45
163	0xc5	-59
164	0x3d	61
165	0x08	8
166	0xfc	-4
167	0x8f	-113
168	0x02	2
169	0xdd	-35
170	0x32	50
171	0x21	33
172	0x00	0
173	0xed	-19
174	0xee	-18
175	0x53	83
176	0x06	6
177	0x4f	79
178	0x58	88
179	0x0a	10
180	0x37	55
181	0x7d	125
182	0xe4	-28
183	0x17	23
184	0x1a	26
185	0x8f	-113
186	0x8d	-115
187	0xc6	-58
188	0x07	7
189	0x8c	-116
190	0xfe	-2
191	0xbd	-67
192	0xcc	-52
193	0x1b	27
194	0x11	17
195	0x34	52
196	0xcb	-53
197	0xf8	-8
198	0x30	48
199	0xd1	-47
200	0x5b	91
201	0xcc	-52
202	0x3f	63
203	0x89	-119
204	0xe3	-29
205	0x98	-104
206	0x6d	109
207	0x2b	43
208	0xf5	-11
209	0xfc	-4
210	0xe5	-27
211	0x0a	10
212	0x37	55
213	0x56	86
214	0x5d	93
215	0x60	96
216	0xe3	-29
217	0x50	80
218	0xb9	-71
219	0xee	-18
220	0x01	1
221	0x9c	-100
222	0xe3	-29
223	0xeb	-21
224	0xf6	-10
225	0xa5	-91
226	0x2e	46
227	0xcd	-51
228	0xc2	-62
229	0x1e	30
230	0x31	49
231	0x10	16
232	0x0b	11
233	0xdf	-33
234	0xd5	-43
235	0xed	-19
236	0x3c	60
237	0xca	-54
238	0x2e	46
239	0xb3	-77
240	0x2a	42
241	0xb8	-72
242	0x6f	111
243	0x33	51
244	0x12	18
245	0xca	-54
246	0x0b	11
247	0x08	8
248	0x0c	12
249	0x29	41
250	0x49	73
251	0x2a	42
252	0x37	55
253	0x35	53
254	0xbc	-68
255	0x19	25

model/conv1d_4/conv1d i1 [36, 1, 9, 36]
0	0xb5	-75
1	0xd0	-48
2	0xed	-19
3	0xb7	-73
4	0xd5	-43
5	0xe3	-29
6	0x27	39
7	0xe2	-30
8	0x19	25
9	0x13	19
10	0x05	5
11	0x17	23
12	0x52	82
13	0x17	23
14	0x20	32
15	0xd6	-42
16	0xdc	-36
17	0xec	-20
18	0x30	48
19	0xcf	-49
20	0x1c	28
21	0x17	23
22	0xc4	-60
23	0xfa	-6
24	0xde	-34
25	0xfd	-3
26	0x1a	26
27	0xe9	-23
28	0xde	-34
29	0xa7	-89
30	0xdb	-37
31	0xe9	-23
32	0x32	50
33	0xd2	-46
34	0x1f	31
35	0xd5	-43
36	0xc1	-63
37	0x9f	-97
38	0xcf	-49
39	0xb8	-72
40	0xaf	-81
41	0xb6	-74
42	0x2a	42
43	0xea	-22
44	0x0c	12
45	0x08	8
46	0xd9	-39
47	0x0a	10
48	0x4a	74
49	0xd9	-39
50	0xda	-38
51	0xb0	-80
52	0xc9	-55
53	0xe7	-25
54	0x53	83
55	0xb0	-80
56	0xc8	-56
57	0x3f	63
58	0xda	-38
59	0xd4	-44
60	0xf9	-7
61	0xc7	-57
62	0xd4	-44
63	0xfb	-5
64	0x22	34
65	0xbb	-69
66	0x14	20
67	0x00	0
68	0xf5	-11
69	0x06	6
70	0x17	23
71	0xdc	-36
72	0xc3	-61
73	0xe5	-27
74	0xd4	-44
75	0xc3	-61
76	0xcb	-53
77	0xbb	-69
78	0xf4	-12
79	0x20	32
80	0x49	73
81	0xfa	-6
82	0xe6	-26
83	0xe9	-23
84	0x0b	11
85	0xe6	-26
86	0xd9	-39
87	0x00	0
88	0xc5	-59
89	0xe2	-30
90	0x1f	31
91	0xaa	-86
92	0x0a	10
93	0xf7	-9
94	0xfd	-3
95	0xd7	-41
96	0xf4	-12
97	0xcf	-49
98	0x00	0
99	0xb0	-80
100	0xf2	-14
101	0xb8	-72
102	0xe2	-30
103	0xce	-50
104	0x1a	26
105	0xeb	-21
106	0x0c	12
107	0x07	7
108	0xea	-22
109	0xe5	-27
110	0x03	3
111	0xfe	-2
112	0xd6	-42
113	0xda	-38
114	0x22	34
115	0x10	16
116	0xf9	-7
117	0xcd	-51
118	0xdf	-33
119	0xec	-20
120	0x27	39
121	0x0b	11
122	0x04	4
123	0xff	-1
124	0x09	9
125	0x0d	13
126	0x48	72
127	0xcc	-52
128	0x15	21
129	0xfb	-5
130	0xdb	-37
131	0xda	-38
132	0xfc	-4
133	0xd3	-45
134	0xe5	-27
135	0xca	-54
136	0xe5	-27
137	0xc6	-58
138	0xeb	-21
139	0xce	-50
140	0x2e	46
141	0x19	25
142	0xe9	-23
143	0xdf	-33
144	0xb1	-79
145	0x04	4
146	0x05	5
147	0xfc	-4
148	0xb0	-80
149	0xee	-18
150	0x09	9
151	0x1b	27
152	0x0d	13
153	0xe7	-25
154	0xbd	-67
155	0xd5	-43
156	0x27	39
157	0xe9	-23
158	0xe5	-27
159	0xf9	-7
160	0x07	7
161	0x16	22
162	0x47	71
163	0x01	1
164	0xeb	-21
165	0x46	70
166	0xee	-18
167	0xdd	-35
168	0xcd	-51
169	0xcd	-51
170	0x00	0
171	0xd2	-46
172	0x05	5
173	0xb6	-74
174	0x0b	11
175	0x19	25
176	0x0d	13
177	0xfd	-3
178	0xf4	-12
179	0xf0	-16
180	0xf7	-9
181	0xb8	-72
182	0xf1	-15
183	0x06	6
184	0xd3	-45
185	0xea	-22
186	0x0c	12
187	0xfc	-4
188	0x13	19
189	0x06	6
190	0xc6	-58
191	0xc7	-57
192	0x38	56
193	0xef	-17
194	0xec	-20
195	0xd9	-39
196	0xc8	-56
197	0xf0	-16
198	0x4b	75
199	0xf0	-16
200	0x12	18
201	0x42	66
202	0xf1	-15
203	0xf4	-12
204	0xd7	-41
205	0xe9	-23
206	0x19	25
207	0xc9	-55
208	0xfb	-5
209	0xe8	-24
210	0x11	17
211	0xda	-38
212	0x36	54
213	0xe4	-28
214	0xfd	-3
215	0x03	3
216	0xaf	-81
217	0xf7	-9
218	0xd0	-48
219	0xc3	-61
220	0xb7	-73
221	0xbc	-68
222	0x3b	59
223	0x12	18
224	0xf3	-13
225	0xe5	-27
226	0xc9	-55
227	0xe2	-30
228	0x46	70
229	0xd1	-47
230	0xd6	-42
231	0xcc	-52
232	0xc1	-63
233	0x0a	10
234	0x1d	29
235	0xf6	-10
236	0xe6	-26
237	0x0b	11
238	0xfe	-2
239	0xd8	-40
240	0xed	-19
241	0xd2	-46
242	0x1f	31
243	0x81	-127
244	0xf3	-13
245	0xe1	-31
246	0xcc	-52
247	0xe1	-31
248	0xe6	-26
249	0x0a	10
250	0xd4	-44
251	0xdf	-33
252	0xbe	-66
253	0xbe	-66
254	0xd4	-44
255	0x05	5

model/conv1d_3/conv1d f4 [36, 1, 1, 24]
0	0x3e35d5de	0.17757365
1	0xbecfb0af	-0.40564486
2	0xbda400b0	-0.08007944
3	0xbca66d65	-0.020315835
4	0xbdaa3f7d	-0.08312891
5	0x3e9b4cb7	0.30331966
6	0x3be3d10e	0.0069524115
7	0xbe41dee3	-0.18932681
8	0xbc99486b	-0.01871129
9	0x3dea6ab4	0.11446133
10	0x3b0774ff	0.00206691
11	0xbd03993f	-0.03212857
12	0xbf115154	-0.5676472
13	0x3ee704e4	0.4512092
14	0xbe21bece	-0.15795442
15	0x3d9449c7	0.072406344
16	0x3e7c14f6	0.24617371
17	0xbe422f5a	-0.18963376
18	0x3d5a05a2	0.053228028
19	0x3ead538c	0.33852804
20	0x3e6f713a	0.23383036
21	0xbf088c9e	-0.53339565
22	0x3e086c5a	0.13322583
23	0x3e7d6427	0.24745236
24	0x3d992cb4	0.074792296
25	0xbe661e89	-0.22472586
26	0x3e8b60bb	0.27222237
27	0x3e3f0689	0.18654837
28	0x3db8e374	0.09027758
29	0xbed4fbaf	-0.4159827
30	0xbde9c39c	-0.11414263
31	0xbdbf9e33	-0.09356346
32	0xbec62265	-0.38698116
33	0xbeaf7e2c	-0.3427595
34	0xbdca09bb	-0.09865137
35	0xbc361d6f	-0.011115416
36	0x3e4ebb96	0.20188746
37	0x3eb28ef9	0.34874704
38	0xbee17c93	-0.44040355
39	0xbecfc864	-0.40582573
40	0xbe771751	-0.24129988
41	0xbeadfba9	-0.33981064
42	0xbe6abac5	-0.2292281
43	0xbc700c07	-0.014651305
44	0x3e09631a	0.1341671
45	0x3e489d05	0.19591148
46	0xbe059268	-0.13044131
47	0xbd8d9b64	-0.06914404
48	0x3e83215f	0.25611398
49	0x3e4d8a8a	0.2007238
50	0x3da159c7	0.07878452
51	0x3ebe4e9a	0.37169343
52	0x3d82e87b	0.063919984
53	0x3e656984	0.22403532
54	0x3e9603e9	0.29299858
55	0xbe46c312	-0.19410351
56	0xbc4a7966	-0.012358045
57	0x3e7c6b71	0.2465036
58	0xbe93880a	-0.28814727
59	0xbd466e25	-0.048444886
60	0x3ea1245d	0.31473055
61	0xbe73ff8c	-0.23827952
62	0x3eaaf31d	0.33388606
63	0xbe2b548a	-0.16731468
64	0x3e96e99e	0.2947511
65	0xbd1f0b89	-0.03882936
66	0xbe97b019	-0.2962654
67	0xbd42c485	-0.047550697
68	0x3eb1b398	0.34707332
69	0x3e4d6e98	0.2006172
70	0xbd9669f0	-0.07344425
71	0xbea1f577	-0.31632587
72	0xbd61f149	-0.055161748
73	0x3e882e26	0.26597708
74	0xbda40bde	-0.08010076
75	0x3e24e497	0.16102825
76	0x3ec48e00	0.38389587
77	0xbe534569	-0.20631947
78	0x3ea5e9fb	0.32405075
79	0x3db5c55e	0.088755354
80	0x3dbe18ab	0.09282049
81	0xbe043734	-0.12911683
82	0xbe563000	-0.20916748
83	0xbe58a818	-0.21157873
84	0xbb74e6a2	-0.0037368913
85	0xbd7dbf03	-0.06194974
86	0xbe8d8276	-0.27638596
87	0x3dad0fb6	0.08450262
88	0xbd80eaf0	-0.06294811
89	0x3e8b83f2	0.27249104
90	0x3d3df106	0.046372436
91	0xbec33e57	-0.381335
92	0xbcb38520	-0.021914065
93	0x3eabb5c2	0.33537108
94	0xbe36ec60	-0.17863607
95	0x3de4fc54	0.1118094
96	0x3e3b9e74	0.18322164
97	0xbea35948	-0.31904054
98	0xbdcdf566	-0.10056572
99	0xbd3e6a72	-0.046488233
100	0xbea88b61	-0.32918838
101	0xbc6d5618	-0.014485858
102	0xbe2f2036	-0.17102131
103	0xbe12febb	-0.14354984
104	0xbe91dd19	-0.28488997
105	0xbe749c6d	-0.23887797
106	0x3c3b12d7	0.011418066
107	0x3e71a58e	0.2359831
108	0xbe4821db	-0.19544165
109	0xbddae0f7	-0.1068744
110	0xbe2922de	-0.16517207
111	0xbe83d23b	-0.2574633
112	0xbdc72256	-0.09723346
113	0x3eb39a95	0.35078874
114	0xbd3509c2	-0.04419876
115	0x3e5a17a1	0.21298076
116	0xbd07435f	-0.033023234
117	0x3d575d49	0.052579198
118	0xbe4e2d91	-0.2013457
119	0xbee258a4	-0.44208252
120	0x3e9b97db	0.30389294
121	0x3e0134cc	0.12617797
122	0xbe8188bb	-0.2529963
123	0xbe3e3937	-0.18576513
124	0x3e2359ed	0.15952273
125	0xbcb365aa	-0.021899063
126	0xbe4c641d	-0.19960065
127	0x3cda6c53	0.026662981
128	0xbe760a86	-0.24027452
129	0x3d0560fa	0.032563187
130	0x3e9ac5c4	0.30229008
131	0x3e07596f	0.1321771
132	0x3e7d50b2	0.24737814
133	0xbe78c34c	-0.2429325
134	0xbef146cd	-0.4712433
135	0xbeb0f57b	-0.34562287
136	0x3ebf129c	0.37318885
137	0xbd1f26c5	-0.038855333
138	0xbdc57dae	-0.09643112
139	0x3e416042	0.18884376
140	0xbe463be5	-0.19358785
141	0xbe65c591	-0.22438647
142	0x3edad887	0.42743322
143	0x3f313e0b	0.69235295
144	0x3e3bdf0c	0.18346804
145	0x3ec56cbb	0.38559517
146	0x3e7dbbd2	0.24778679
147	0x3eaedf73	0.34154853
148	0x3ddd7343	0.10813
149	0xbdf72f66	-0.120695874
150	0x3e96c962	0.29450518
151	0x3e91e3ea	0.28494197
152	0xbea0e541	-0.31424907
153	0xbc87937d	-0.01654982
154	0x3e42cfd9	0.190246
155	0x3f1d08bb	0.61341447
156	0xbe512764	-0.20425183
157	0xbea13add	-0.31490222
158	0xbd9e36ff	-0.077253334
159	0x3e283e1f	0.16429947
160	0x3e30441e	0.17213485
161	0x3dc55531	0.096353896
162	0x3eb9e7d7	0.36309692
163	0x3e122401	0.14271547
164	0xbe2e4eb1	-0.17022206
165	0xbe50e864	-0.2040115
166	0xbb306c7d	-0.0026920133
167	0xbee52dda	-0.44761544
168	0xbcebd944	-0.028790124
169	0xbe663a33	-0.22483139
170	0xbe83344e	-0.25625843
171	0xbee48824	-0.44635117
172	0x3ccf5d95	0.025313178
173	0x3eb2ed32	0.3494659
174	0x3cfc31ce	0.030785467
175	0x3cc65dfc	0.024214737
176	0xbd75f045	-0.060043592
177	0x3f03578c	0.5130546
178	0xbc8fff44	-0.017577775
179	0xbe0b8bd4	-0.13627559
180	0xbf2eedc5	-0.6833156
181	0x3ea0aa8e	0.31380123
182	0xbe81aea5	-0.25328556
183	0x3e2e3f16	0.17016253
184	0xbec21f40	-0.37914467
185	0xbe86fcc5	-0.26364723
186	0x3e4e0efd	0.20122905
187	0x3c14704c	0.009059977
188	0x3f24dfc0	0.64403915
189	0xbf32bf6a	-0.69823325
190	0x3e8a208f	0.26977965
191	0xbdc07700	-0.093976974
192	0xbebb55d7	-0.36588928
193	0x3e776db5	0.24162944
194	0xbe998028	-0.29980588
195	0x3ed194a7	0.40933725
196	0xbda4223c	-0.08014342
197	0x3eafe862	0.34356982
198	0xbe813e8d	-0.25243035
199	0x3ebc0987	0.3672602
200	0xbe9b417a	-0.30323392
201	0x3e94216e	0.28931755
202	0xbe2547c8	-0.16140664
203	0x3eb19b18	0.3468864
204	0x3df9dcae	0.122002944
205	0xbec92921	-0.3928919
206	0x3e9e8b5a	0.30965692
207	0x3d6355b1	0.055501644
208	0xbeb48f04	-0.35265362
209	0xbd63df17	-0.055632677
210	0x3b53589b	0.0032248858
211	0xbe071d54	-0.13194782
212	0x3eaa44df	0.3325567
213	0xbd6c6ab8	-0.057718962
214	0xbe862c82	-0.26205832
215	0xbeedba57	-0.4643123
216	0xbec8bd7e	-0.3920707
217	0x3e96e874	0.29474223
218	0xbeaa9475	-0.3331639
219	0x3b5a470c	0.0033306507
220	0x3bcef0de	0.0063153347
221	0x3ea5933a	0.32338887
222	0x3e1b482c	0.1516425
223	0x3ec97bfb	0.39352402
224	0x3c0db522	0.008649142
225	0xbce0a5d7	-0.027422829
226	0xbd001e7c	-0.031279072
227	0xbd925e0d	-0.07146845
228	0x3d9556f0	0.07291973
229	0x3e15258c	0.14565104
230	0x3ea9b859	0.3314846
231	0xbb2fc137	-0.0026818046
232	0xbd11fe37	-0.03564283
233	0xbec80f27	-0.3907406
234	0x3e83ad31	0.25718072
235	0xbefdd4e4	-0.49576485
236	0x3cf662f1	0.030076476
237	0x3e21b3d5	0.15791257
238	0x3c94e462	0.018175308
239	0xbeb1db4c	-0.34737623
240	0x3d650628	0.055914074
241	0x3e417a53	0.18894319
242	0xbedfeeb6	-0.4373681
243	0xbe72b245	-0.23700817
244	0xbd367d54	-0.044553116
245	0x3e3cb166	0.18427047
246	0x3e9438f4	0.28949702
247	0x3d6018b4	0.05471106
248	0x3eebb153	0.46033725
249	0xbeb928bc	-0.3616389
250	0xbda991a1	-0.0827973
251	0xbe744f99	-0.23858489
252	0xbdababe9	-0.08382399
253	0xbe3890f1	-0.18024041
254	0x3be96667	0.007122803
255	0x3ea06b88	0.3133204

model/conv1d_2/conv1d i1 [36, 1, 9, 36]
0	0x0d	13
1	0xf0	-16
2	0xf1	-15
3	0x1b	27
4	0xbc	-68
5	0xca	-54
6	0x2b	43
7	0x24	36
8	0x2d	45
9	0xf9	-7
10	0xac	-84
11	0xc6	-58
12	0xe9	-23
13	0x50	80
14	0xf5	-11
15	0x33	51
16	0xf0	-16
17	0xfd	-3
18	0x14	20
19	0xd6	-42
20	0xc0	-64
21	0xfd	-3
22	0xb1	-79
23	0x00	0
24	0xa3	-93
25	0xc7	-57
26	0x23	35
27	0xfb	-5
28	0xf6	-10
29	0x20	32
30	0x15	21
31	0xfe	-2
32	0xfa	-6
33	0xf0	-16
34	0xf3	-13
35	0xc5	-59
36	0xf2	-14
37	0x02	2
38	0xf2	-14
39	0xe6	-26
40	0xd3	-45
41	0xbd	-67
42	0xfc	-4
43	0x1a	26
44	0x26	38
45	0xf7	-9
46	0xc0	-64
47	0xd9	-39
48	0xf9	-7
49	0x12	18
50	0xf7	-9
51	0x40	64
52	0x02	2
53	0xd3	-45
54	0x12	18
55	0xbe	-66
56	0xe5	-27
57	0xd1	-47
58	0xbb	-69
59	0xfc	-4
60	0xc1	-63
61	0xf0	-16
62	0x11	17
63	0xf8	-8
64	0xcb	-53
65	0xe5	-27
66	0x13	19
67	0xf3	-13
68	0xed	-19
69	0x1d	29
70	0xfe	-2
71	0xab	-85
72	0xf6	-10
73	0xb3	-77
74	0xd9	-39
75	0xfa	-6
76	0xbb	-69
77	0x81	-127
78	0x30	48
79	0xe5	-27
80	0x1b	27
81	0xf9	-7
82	0x9f	-97
83	0xba	-70
84	0xe6	-26
85	0x03	3
86	0xed	-19
87	0x32	50
88	0xed	-19
89	0xef	-17
90	0x32	50
91	0xc5	-59
92	0xd0	-48
93	0xa0	-96
94	0xd1	-47
95	0xdd	-35
96	0xe8	-24
97	0xe3	-29
98	0xdc	-36
99	0xa1	-95
100	0xb2	-78
101	0xcd	-51
102	0x11	17
103	0xb8	-72
104	0x37	55
105	0xe9	-23
106	0xef	-17
107	0xd0	-48
108	0x45	69
109	0xc5	-59
110	0xbc	-68
111	0x1b	27
112	0xe0	-32
113	0x9e	-98
114	0x42	66
115	0xd4	-44
116	0xeb	-21
117	0x19	25
118	0xab	-85
119	0x03	3
120	0xf9	-7
121	0x47	71
122	0xde	-34
123	0x3a	58
124	0xb6	-74
125	0xc8	-56
126	0x0f	15
127	0xbd	-67
128	0xc2	-62
129	0xe0	-32
130	0xed	-19
131	0x0a	10
132	0xab	-85
133	0xaa	-86
134	0xda	-38
135	0xdb	-37
136	0xb5	-75
137	0xe8	-24
138	0x43	67
139	0xf1	-15
140	0x0c	12
141	0x0b	11
142	0xd0	-48
143	0xcd	-51
144	0xfb	-5
145	0xa1	-95
146	0xb3	-77
147	0xd5	-43
148	0xc0	-64
149	0x9e	-98
150	0x4e	78
151	0xf2	-14
152	0xe5	-27
153	0xd8	-40
154	0xbc	-68
155	0xf3	-13
156	0xab	-85
157	0x2f	47
158	0xba	-70
159	0x26	38
160	0xf0	-16
161	0xe9	-23
162	0x17	23
163	0xa3	-93
164	0xc4	-60
165	0xb3	-77
166	0xa3	-93
167	0xdc	-36
168	0x9d	-99
169	0xb9	-71
170	0xf4	-12
171	0xbf	-65
172	0xc6	-58
173	0xde	-34
174	0xf5	-11
175	0x95	-107
176	0x34	52
177	0xe0	-32
178	0xb1	-79
179	0x8f	-113
180	0xe4	-28
181	0xbb	-69
182	0xc0	-64
183	0xd1	-47
184	0xc3	-61
185	0x8d	-115
186	0x16	22
187	0xe9	-23
188	0x15	21
189	0xf7	-9
190	0xde	-34
191	0x0c	12
192	0xf8	-8
193	0xf4	-12
194	0xde	-34
195	0x50	80
196	0xe7	-25
197	0xbe	-66
198	0x12	18
199	0xb6	-74
200	0xe4	-28
201	0x9f	-97
202	0xc8	-56
203	0xf5	-11
204	0xa6	-90
205	0xb0	-80
206	0xcd	-51
207	0xdd	-35
208	0xd2	-46
209	0xcc	-52
210	0x18	24
211	0xea	-22
212	0x32	50
213	0x15	21
214	0xeb	-21
215	0xb5	-75
216	0x07	7
217	0xac	-84
218	0xfb	-5
219	0xee	-18
220	0xe1	-31
221	0xbe	-66
222	0x55	85
223	0xbe	-66
224	0xf6	-10
225	0xf9	-7
226	0xca	-54
227	0xe6	-26
228	0xf6	-10
229	0xf9	-7
230	0xc3	-61
231	0x42	66
232	0xf9	-7
233	0x11	17
234	0x5c	92
235	0xd9	-39
236	0xbe	-66
237	0xa1	-95
238	0xba	-70
239	0x07	7
240	0xb7	-73
241	0xd9	-39
242	0xec	-20
243	0xaf	-81
244	0x9f	-97
245	0x18	24
246	0x47	71
247	0xb9	-71
248	0x45	69
249	0xf1	-15
250	0x13	19
251	0x13	19
252	0xdd	-35
253	0xc1	-63
254	0xaa	-86
255	0xda	-38

model/conv1d_1/conv1d f4 [36]
0	0x00000000	0.0
1	0x00000000	0.0
2	0x00000000	0.0
3	0x00000000	0.0
4	0x00000000	0.0
5	0x00000000	0.0
6	0x00000000	0.0
7	0x00000000	0.0
8	0x00000000	0.0
9	0x00000000	0.0
10	0x00000000	0.0
11	0x00000000	0.0
12	0x00000000	0.0
13	0x00000000	0.0
14	0x00000000	0.0
15	0x00000000	0.0
16	0x00000000	0.0
17	0x00000000	0.0
18	0x00000000	0.0
19	0x00000000	0.0
20	0x00000000	0.0
21	0x00000000	0.0
22	0x00000000	0.0
23	0x00000000	0.0
24	0x00000000	0.0
25	0x00000000	0.0
26	0x00000000	0.0
27	0x00000000	0.0
28	0x00000000	0.0
29	0x00000000	0.0
30	0x00000000	0.0
31	0x00000000	0.0
32	0x00000000	0.0
33	0x00000000	0.0
34	0x00000000	0.0
35	0x00000000	0.0
